…
model = Model(inputs=inputs,outputs=layer)
COMPILE AND FIT THE MODEL

model.summary()

model.compile(loss='binary_crossentropy',optimizer=RMSprop(),metrics=['accuracy'])
model.fit(sequences_matrix,Y_train,batch_size=128,epochs=10,
          validation_split=0.2)
Model: "model"
_________________________________________________________________
 Layer (type)                Output Shape              Param #   
=================================================================
 inputs (InputLayer)         [(None, 150)]             0         
                                                                 
 embedding (Embedding)       (None, 150, 50)           50000     
                                                                 
 lstm (LSTM)                 (None, 64)                29440     
                                                                 
 FC1 (Dense)                 (None, 256)               16640     
                                                                 
 activation (Activation)     (None, 256)               0         
                                                                 
 dropout (Dropout)           (None, 256)               0         
                                                                 
 out_layer (Dense)           (None, 1)                 257       
                                                                 
 activation_1 (Activation)   (None, 1)                 0         
                                                                 
=================================================================
Total params: 96,337
Trainable params: 96,337
Non-trainable params: 0
_________________________________________________________________
Epoch 1/10
30/30 [==============================] - 11s 286ms/step - loss: 0.3204 - accuracy: 0.8820 - val_loss: 0.1487 - val_accuracy: 0.9726
…
